Using TensorFlow backend.
(50000, 3072)
(10000, 3072)
(5000, 3072)
9
0
10
(3750, 32, 32, 3)
(1250, 32, 32, 3)
(3750, 10)
(1250, 10)
10
(50000, 32, 32, 3)
_________________________________________________________________
Layer (type)                 Output Shape              Param #   
=================================================================
input_1 (InputLayer)         (None, 32, 32, 3)         0         
_________________________________________________________________
conv2d_1 (Conv2D)            (None, 32, 32, 32)        896       
_________________________________________________________________
dropout_1 (Dropout)          (None, 32, 32, 32)        0         
_________________________________________________________________
conv2d_2 (Conv2D)            (None, 32, 32, 32)        9248      
_________________________________________________________________
max_pooling2d_1 (MaxPooling2 (None, 16, 16, 32)        0         
_________________________________________________________________
conv2d_3 (Conv2D)            (None, 16, 16, 32)        9248      
_________________________________________________________________
up_sampling2d_1 (UpSampling2 (None, 32, 32, 32)        0         
_________________________________________________________________
conv2d_4 (Conv2D)            (None, 32, 32, 32)        9248      
_________________________________________________________________
conv2d_5 (Conv2D)            (None, 32, 32, 3)         867       
=================================================================
Total params: 29,507
Trainable params: 29,507
Non-trainable params: 0
_________________________________________________________________
(50000, 32, 32, 3)
Epoch 1/100
2017-06-18 07:01:04.226130: W tensorflow/core/platform/cpu_feature_guard.cc:45] The TensorFlow library wasn't compiled to use SSE4.1 instructions, but these are available on your machine and could speed up CPU computations.
…
